model/model.pth (torch, 17216 bytes, 4 tensors)

linear1.weight f4 [256, 11]
-0.099411815 0.25053468 0.020913303 0.08398985 0.09751821 0.07760151 0.18541485 -0.14989592
-0.021033816 0.09484921 0.21943462 0.24735928 -0.2628119 0.13715798 -0.12619632 0.25304568
-0.037571996 -0.1984798 -0.10062332 -0.06167388 -0.038033217 0.027645586 -0.15976474 -0.029696018
-0.14655675 -0.12552832 -0.1488035 0.20113124 0.1596149 -0.09455071 -0.1271823 0.26334882
-0.23009408 0.08185345 -0.21406674 0.22813384 -0.2007303 -0.099552765 0.047094844 -0.29726353
-0.24118944 -0.2843703 -0.09894186 0.17525254 0.10734284 0.23915124 0.2737612 -0.09557947
-0.13842295 0.20720981 0.07588372 -0.17113507 -0.10545322 -0.2995065 -0.14436528 -0.049106643
0.23587412 0.07180083 -0.27543843 0.15443113 0.038581178 0.11926156 -0.024083948 0.11052569
0.19506282 0.04573201 -0.11364864 0.06617655 0.0020146456 0.11550532 0.2811953 -0.10567053
-0.06759466 -0.06710473 -0.00064663356 -0.26093197 -0.041809585 0.12518577 -0.24160576 -0.02768457
0.04310349 -0.13107482 0.20138995 0.06018491 0.30012682 0.075676635 0.0071479417 -0.21749245
-0.2976311 0.2731943 -0.2639463 0.18137482 -0.2110582 -0.26451558 -0.2357503 -0.28816155
-0.20803207 0.1640225 0.20981777 0.24425001 0.2396448 -0.058013763 0.27494612 -0.16092516
0.25837886 -0.092145845 -0.04879915 -0.25127012 -0.13608699 0.04198142 0.120183885 0.039109826
-0.27478862 -0.21875021 0.05527214 0.27293032 -0.023633702 -0.07531253 -0.24203026 -0.27847347
-0.26322547 0.19608213 0.16025299 0.25440428 0.17676473 -0.101798765 -0.016360238 0.17036171
0.14290687 0.2438303 -0.298639 0.21908137 0.2752147 -0.17541689 -0.24070454 -0.27931577
-0.08083995 -0.0016171038 0.21944861 -0.25982165 -0.04001683 0.09142419 -0.26707703 -0.04437694
-0.09326854 0.20109972 -0.100029565 -0.004019604 -0.1853922 -0.12562117 -0.042561166 -0.10395738
-0.19404191 0.21833907 0.00066125393 0.07159984 -0.20719624 0.010336066 -0.2432314 0.0071986704
-0.023256566 -0.1397842 0.24642362 -0.05557149 -0.14816856 0.06150748 -0.13647662 -0.09976099
-0.15179192 0.0144169945 -0.07966493 0.18663847 -0.003280896 -0.18960892 0.012875963 0.18352646
0.28097335 0.24492916 -0.20980582 -0.05829002 -0.21223009 0.26968515 0.09263076 0.16728665
-0.27856684 0.27525762 0.10972889 -0.2875304 -0.16226594 0.2965441 0.2846831 -0.020097788
-0.2556973 -0.057202995 0.11871234 0.13432457 -0.1804878 0.28072408 -0.14171602 0.010545403
-0.261958 -0.21586564 -0.26098716 -0.14198275 -0.007646577 -0.20705374 0.1942695 -0.21115237
-0.052700777 0.26096836 0.06742418 -0.12980515 0.05004213 0.04680191 -0.12764752 0.069192156
0.032306146 0.21332183 -0.06755612 0.0884863 0.3084578 -0.120828316 -0.09099451 -0.06255782
0.26519778 -0.0012385135 0.16269568 0.127131 0.011237138 0.25845864 0.09718271 0.29062587
0.070221305 -0.23705952 0.00076156855 0.048942268 0.05089286 0.121035166 -0.28744987 -0.17233993
0.09538486 -0.16736153 0.067910194 0.24650025 -0.15402278 -0.04203101 0.103018396 -0.067368165
-0.2427999 0.26486954 0.14057657 -0.0047769896 0.05071845 0.012432337 0.14820758 0.08585736
00000000: 6c98 cbbd 1546 803e 6052 ab3c df02 ac3d
00000010: a1b7 c73d 8aed 9e3d 64dd 3d3e 517e 19be
00000020: 1c4f acbc 4d40 c23d 78b3 603e c04b 7d3e
00000030: 488f 86be 2473 0c3e 9c39 01be 348f 813e
00000040: 18e5 19bd 4a3e 4bbe 9913 cebd c09d 7cbd
00000050: b8c8 1bbd ff78 e23c 5e99 23be 1045 f3bc
00000060: f912 16be 7f8a 00be f25f 18be 59f5 4d3e
00000070: 1772 233e cda3 c1bd 143c 02be a8d5 863e
00000080: c89d 6bbe c8a2 a73d 5034 5bbe eb9b 693e
00000090: 3e8c 4dbe 52e2 cbbd 86e6 403d ed32 98be
000000a0: 5dfa 76be fc98 91be 08a2 cabd 6775 333e
000000b0: 90d6 db3d 10e4 743e 6e2a 8c3e 2bbf c3bd
000000c0: bfbe 0dbe cf2e 543e ec68 9b3d 083e 2fbe
000000d0: dcf7 d7bd ea58 99be 7ed4 13be 0c24 49bd
000000e0: fc88 713e 500c 933d 4406 8dbe 3223 1e3e
000000f0: 4c07 1e3d 683f f43d b34b c5bc 4b5b e23d
00000100: 8cbe 473e 7d51 3b3d 9ec0 e8bd 9287 873d
00000110: 2508 043b 0e8e ec3d d5f8 8f3e ca69 d8bd
00000120: 126f 8abd 346e 89bd d882 29ba e098 85be
00000130: 8740 2bbd b330 003e 8067 77be c0ca e2bc
00000140: 498d 303d 7a38 06be 2b39 4e3e 7484 763d
00000150: 39aa 993e 5afc 9a3d 4839 ea3b 57b6 5ebe
00000160: 1b63 98be 20e0 8b3e f823 87be 52ba 393e
00000170: a41f 58be 966e 87be 8768 71be e989 93be
00000180: 5c06 55be 84f5 273e 78da 563e ad1c 7a3e
00000190: 7265 753e d79f 6dbd bdc5 8c3e 91c9 24be
000001a0: 3c4a 843e f6b6 bcbd 9ee1 47bd 7aa6 80be
000001b0: 635a 0bbe b6f4 2b3d f822 f63d a031 203d
000001c0: 18b1 8cbe 0e00 60be 0a65 623d 86bd 8b3e
000001d0: 779b c1bc 753d 9abd c8d6 77be 1394 8ebe
000001e0: 7dc5 86be c1c9 483e 5c19 243e 4741 823e
000001f0: d001 353e df7b d0bd e805 86bc 4d73 2e3e
00000200: 2e56 123e a6ae 793e 36e7 98be de56 603e
00000210: f1e8 8c3e 7ca0 33be 407b 76be 7a02 8fbe
00000220: 6a8f a5bd 00f5 d3ba 23b7 603e 5807 85be
00000230: b0e8 23bd 9b3c bb3d 52be 88be 98c4 35bd
00000240: 9403 bfbd 16ed 4d3e 4ddc ccbd e2b6 83bb
00000250: 74d7 3dbe d6a2 00be 9e54 2ebd 9be7 d4bd
00000260: ecb2 46be 4794 5f3e 0058 2d3a f0a2 923d
00000270: 402b 54be 9a58 293c a711 79be d3e2 eb3b
00000280: 8e84 bebc 9723 0fbe 7956 7c3e ee9e 63bd
00000290: 80b9 17be 44ef 7b3d 87c0 0bbe 7d4f ccbd
000002a0: 576f 1bbe 4235 6c3c 5e27 a3bd 281e 3f3e
000002b0: 4d04 57bb d728 42be b4f5 523c 5cee 3b3e
000002c0: bddb 8f3e b6ce 7a3e 56d7 56be 84c1 6ebd
000002d0: d852 59be 2c14 8a3e 32b5 bd3d 314d 2b3e
000002e0: 50a0 8ebe 91ee 8c3e 8ab9 e03d 2f37 93be
000002f0: 0b29 26be a1d4 973e fcc1 913e 1ea4 a4bc
00000300: c2ea 82be b04d 6abd 751f f33d 618c 093e
00000310: cbd1 38be 11bb 8f3e 011e 11be a0c6 2c3c
00000320: 5c1f 86be e20b 5dbe 1ca0 85be ed63 11be
00000330: 2390 fabb e505 54be 95ee 463e 5438 58be
00000340: c5dc 57bd a59d 853e b015 8a3d a4eb 04be
00000350: faf8 4c3d 5cb3 3f3d 08b6 02be 9eb4 8d3d
00000360: 7353 043d 0a71 5a3e dd5a 8abd 4e38 b53d
00000370: 2eee 9d3e d674 f7bd 545b babd 501e 80bd
00000380: 01c8 873e 9e55 a2ba b299 263e a12e 023e
00000390: f91b 383c b154 843e bb07 c73d eacc 943e
000003a0: 30d0 8f3d bbbf 72be 00a4 473a b077 483d
000003b0: 0875 503d 49e1 f73d a12c 93be e179 30be
000003c0: 2359 c33d d260 2bbe 8014 8b3d 906a 7c3e
000003d0: 26b8 1dbe b528 2cbd 4ffb d23d 52f8 89bd
000003e0: 89a0 78be fb9c 873e 4ef3 0f3e 4b88 9cbb
000003f0: 26be 4f3d 00b1 4b3c bac3 173e fcd5 af3d

linear1.bias f4 [256]
-0.23556304 -0.17724177 -0.08820746 0.2236103 0.23524746 -0.20164976 0.102158956 -0.09797908
-0.18279451 0.31072316 0.19075422 0.068545796 -0.19907199 0.18464838 0.19995725 0.097931005
-0.2009076 -0.08122618 -0.13950683 0.1108971 -0.30370682 0.032960735 -0.3076807 0.11149952
-0.036718268 -0.23460351 -0.23045637 0.18750341 0.042042203 -0.11788787 0.013155764 0.18675086
0.050722677 0.21887584 0.18039292 -0.19183442 -0.028927596 0.10456549 -0.29728395 0.10775782
-0.010566258 -0.17088945 -0.19995473 -0.027534584 -0.28085327 -0.07123895 0.13563831 -0.15757781
0.051735807 -0.13787284 0.25225168 0.2823137 0.029880542 0.1605396 -0.058433127 0.13666184
0.05030682 0.22876061 -0.0024436335 0.23739451 -0.15231329 0.0354103 -0.046423722 -0.18908857
-0.17442758 0.17992452 0.03403252 -0.07933814 -0.13340113 -0.18969104 0.23148723 0.19490479
-0.015879834 0.095067196 0.061994612 0.17498077 0.1625246 -0.10562314 -0.19756104 0.20184915
-0.025049508 -0.0023554324 -0.07794098 -0.24296883 0.2683578 0.17525743 0.10482046 0.17656921
0.26400357 0.09419668 0.020410275 -0.27435392 -0.26208907 0.303066 0.15841864 0.26954067
-0.009119544 0.11083405 -0.11636645 0.01572885 -0.22330429 -0.040612187 0.13731357 -0.011360766
-0.2949799 -0.27234724 0.07796383 -0.036719568 -0.07953929 -0.040114705 -0.0015142706 0.15109544
0.038649388 -0.19661652 0.20148075 0.13460135 -0.28393212 -0.0806421 0.16432485 -0.17982057
0.1440521 0.25653082 -0.12980507 -0.12384368 -0.25858232 0.13178934 0.21024281 0.05304338
0.02905045 -0.21174616 -0.2874942 -0.0022981348 0.23640148 0.2198997 -0.023830598 -0.036866296
-0.15068187 0.2744639 0.12966847 0.11348374 -0.24912792 -0.14896874 -0.015893612 -0.08310435
0.12426159 0.27624944 -0.118541926 -0.27031568 -0.12521178 0.08640036 -0.123643205 -0.11209881
0.16821134 -0.026626661 0.116757765 0.110571556 -0.12002866 0.15917678 0.21753693 -0.2801264
0.21375617 0.15531811 -0.030429458 -0.10180363 0.05124647 0.18662448 0.058523327 -0.25427586
-0.2745738 0.25135437 -0.025182214 -0.29080623 0.08605228 0.07349662 -0.27171215 -0.16158506
-0.2510736 0.12936848 -0.04881087 0.036706887 -0.08177084 0.21491395 -0.267459 0.18579262
0.0631423 0.0018911645 0.2674186 -0.03634344 0.0787049 0.055052042 -0.18594411 -0.18584332
-0.03734587 -0.2718813 0.0055098683 0.09684374 -0.20147401 -0.046828464 -0.15745468 0.2873464
-0.018651348 -0.06210103 0.1257536 0.25410816 0.015076 0.0035927389 0.22497258 0.23723024
0.13023582 0.099462934 -0.021645537 -0.18150574 0.1774526 0.14408918 -0.21785413 0.23528798
-0.11789925 0.25479245 -0.0025568595 -0.1224085 -0.26681122 0.25363705 0.021844525 -0.01889981
-0.060667455 -0.06563815 0.03030759 0.23268455 -0.26634404 0.0723394 0.054722402 -0.28926134
-0.29207626 0.022770643 -0.25427017 0.12947771 0.08617941 -0.102428325 -0.14953351 -0.25943747
0.23036769 0.053241417 0.15564154 0.20685396 -0.26705617 0.20429547 -0.258668 0.11437944
0.13004966 -0.07491476 -0.22722638 0.28508037 0.11018904 0.0612205 -0.13820252 0.026065111
00000000: 7037 71be de7e 35be 1da6 b4bd 19fa 643e
00000010: b6e4 703e 467d 4ebe b738 d13d 42a9 c8bd
00000020: 7c2e 3bbe 1b17 9f3e 1355 433e bd61 8c3d
00000030: 87d9 4bbe 7714 3d3e 98c1 4c3e 0d90 c83d
00000040: b9ba 4dbe e959 a6bd e1da 0ebe 051e e33d
00000050: 767f 9bbe d601 073d 5388 9dbe dc59 e43d
00000060: e565 16bd e73b 70be c1fc 6bbe e500 403e
00000070: 7234 2c3d 326f f1bd 468b 573c 9e3b 3f3e
00000080: 95c2 4f3d fd20 603e ecb8 383e 3e70 44be
00000090: 91f9 ecbc 6e26 d63d 9a35 98be 22b0 dc3d
000000a0: 191e 2dbc a5fd 2ebe efc0 4cbe 3590 e1bc
000000b0: 00cc 8fbe bae5 91bd c5e4 0a3e 145c 21be
000000c0: ede8 533d 8a2e 0dbe 2227 813e 6c8b 903e
000000d0: 0ac8 f43c 7e64 243e 9357 6fbd 15f1 0b3e
000000e0: 860e 4e3d 3940 6a3e 5e25 20bb 8c17 733e
000000f0: 04f8 1bbe 640a 113d cd26 3ebd 6fa0 41be
00000100: 259d 32be 223e 383e af65 0b3d 097c a2bd
00000110: 4e9a 08be 5e3e 42be fd0a 6d3e 1f95 473e
00000120: 6d16 82bc 97b2 c23d 10ee 7d3d 292e 333e
00000130: d96c 263e f250 d8bd 714d 4abe 8bb1 4e3e
00000140: a034 cdbc 995d 1abb 859f 9fbd d2cc 78be
00000150: 3266 893e af76 333e 1cac d63d 8fce 343e
00000160: 7a2b 873e 30ea c03d 7333 a73c 1e78 8cbe
00000170: 8a30 86be 772b 9b3e 7f38 223e 3c01 8a3e
00000180: 246a 15bc f6fc e23d 8951 eebd cad9 803c
00000190: e1a9 64be f758 26bd ee9b 0c3e 8222 3abc
000001a0: 9b07 97be 1971 8bbe 80ab 9f3d 4267 16bd
000001b0: 7fe5 a2bd 514f 24bd 7d7a c6ba c3b8 1a3e
000001c0: d24e 1e3d d755 49be f850 4e3e f0d4 093e
000001d0: 8d5f 91be af27 a5bd c644 283e e222 38be
000001e0: 6582 133e 0258 833e 9feb 04be c1a1 fdbd
000001f0: e764 84be c9f3 063e e449 573e 0444 593d
00000200: 36fb ed3c fcd3 58be 7132 93be 4e9c 16bb
00000210: 3b13 723e 632d 613e 6338 c3bc 1d01 17bd
00000220: 594c 1abe 8886 8c3e d0c7 043e 2a6a e83d
00000230: 641b 7fbe 438b 18be 5233 82bc 9d32 aabd
00000240: dc7c fe3d 9170 8d3e 1cc6 f2bd d166 8abe
00000250: 8437 00be acf2 b03d a638 fdbd 1094 e5bd
00000260: 983f 2c3e 2820 dabc b21e ef3d 5773 e23d
00000270: 96d1 f5bd 3dff 223e 00c2 5e3e ba6c 8fbe
00000280: e6e2 5a3e b60b 1f3e 3347 f9bc 6c7e d0bd
00000290: d2e7 513d 7d1a 3f3e 28b6 6f3d 7230 82be
000002a0: f094 8cbe 85b1 803e ee4a cebc 8ee4 94be
000002b0: 2e3c b03d 6585 963d db1d 8bbe 8e76 25be
000002c0: b88c 80be 2c79 043e e8ed 47bd f659 163d
000002d0: 7877 a7bd 6712 5c3e 63f0 88be 6c40 3e3e
000002e0: c050 813d f3e0 f73a 17eb 883e dcdc 14bd
000002f0: 0930 a13d 407e 613d 2268 3ebe b64d 3ebe
00000300: fcf7 18bd 0734 8bbe 208c b43b 0356 c63d
00000310: 344f 4ebe 34cf 3fbd cd3b 21be 111f 933e
00000320: b6ca 98bc a65d 7ebd 8dc5 003e 771a 823e
00000330: 5401 773c 2874 6b3b 365f 663e 7cec 723e
00000340: 8a5c 053e 39b3 cb3d fb51 b1bc a4dc 39be
00000350: 22b6 353e 1d8c 133e 2715 5fbe 55ef 703e
00000360: 2975 f1bd 2874 823e fc90 27bb 4fb1 fabd
00000370: 7b9b 88be b7dc 813e 4af3 b23c c6d3 9abc
00000380: 707e 78bd 4b6d 86bd 9f47 f83c dc44 6e3e
00000390: 3f5e 88be ae26 943d 9924 603d 101a 94be
000003a0: 058b 95be 8089 ba3c b32f 82be ce95 043e
000003b0: d57e b03d f1c5 d1bd 501f 19be fdd4 84be
000003c0: 82e5 6b3e ac13 5a3d 7f60 1f3e 86d1 533e
000003d0: 96bb 88be d532 513e 2270 84be c53f ea3d
000003e0: bd2b 053e e96c 99bd 08ae 68be 0ef6 913e
000003f0: cbaa e13d 59c2 7a3d f684 0dbe 8086 d53c

linear2.weight f4 [3, 256]
-0.030203747 0.06282383 -0.051756475 0.02384873 0.022144232 0.009454757 0.022508504 -0.054651745
-0.05959208 -0.010446589 -0.015763884 0.015755355 0.04665605 0.015390167 0.0030900366 -0.029482668
-0.05562584 -0.057750374 0.0039900206 -0.0056741815 -0.05538697 -0.04309058 -0.04304315 -0.008503772
-0.048011046 -0.028859613 -0.0043466613 -0.015600247 -0.017171888 0.04115593 0.0036917261 0.002662635
-0.003204137 0.0071790437 -0.049469963 0.03837563 0.04738035 -0.03826358 -0.037206076 -0.050830234
-0.017315136 0.03784189 -0.02640084 0.02385083 -0.021694995 -0.022733806 -0.0391725 0.02918221
0.0050022453 -0.034161456 0.015629662 0.06399164 -0.026037294 0.0032949136 0.039460048 -0.027079178
-0.056999646 -0.039847896 0.027592126 -0.04593173 -0.009795778 -0.030823149 -0.020700628 -0.00065430463
-0.0108765485 0.040134728 0.0039855638 0.023513116 -0.054902438 0.010163233 -0.00031759404 -0.056256853
-0.039834186 0.032024983 -0.0380397 -0.008227287 -0.038026214 -0.0001623411 0.048627116 -0.0015928682
-0.052786395 0.059390303 -0.00976543 -0.01167652 -0.018323502 0.0264396 -0.045734033 -0.0013440831
-0.03247343 -0.024182528 0.027838636 -0.016821846 0.022521041 0.025665028 0.015551037 0.0613609
0.03798722 0.058701806 0.016152646 0.016407851 -0.05487754 -0.0562827 -0.009366998 -0.022730308
-0.0027105883 -0.0052712876 0.042585995 -0.057119958 0.009368783 0.020968912 -0.04065631 0.040818833
-0.0021280716 0.017838253 -0.005498493 -0.052379068 0.02513632 -0.005922838 -0.019538917 0.01829762
0.017533707 0.026304625 0.04706701 0.033974912 0.03693566 -0.023751687 0.029485257 -0.02854795
0.03036985 -0.05187484 0.04258754 -0.004860207 -0.053059552 -0.02533683 0.020371528 0.01705394
-0.0022481012 -0.041323453 -0.036070406 0.0076039783 0.00044563413 -0.039394774 0.02347926 0.049461644
0.016650215 0.025492072 0.07273799 0.03339332 0.039051447 0.027772553 -0.023870705 -0.049894027
0.045466047 0.03919548 -0.02025288 -0.04641037 0.02567581 0.050245475 -0.04793116 0.011445478
-0.036190156 -0.05765643 -0.0043484992 0.053409986 -0.001697193 -0.035595197 -0.044761777 -0.033527903
0.061091363 0.032768965 0.012288571 -0.03378407 -0.011690842 0.014496439 0.017231457 -0.043904494
0.004567313 -0.047665946 0.015757008 0.03342422 0.015527386 -0.026605222 0.008107729 -0.016449174
-0.00043386786 0.04306724 0.05045972 1.576147e-05 0.034621377 -0.015947826 -0.051282972 -0.052461486
-0.011977446 -0.011594087 -0.03741209 -0.010554073 -0.041195933 0.029521272 -0.040710956 0.06817914
-0.022864219 0.060218774 0.02577656 -0.020339368 0.033246182 0.053301428 -0.04419245 0.067807116
-0.028224071 0.03576928 0.012375397 -0.0018002167 -0.00045955734 -0.023780318 -0.04377823 -0.032315116
0.020062659 0.01645945 0.007246327 -0.03308911 -0.010002568 0.005989975 0.02093156 0.0029835284
0.036137454 0.027041057 0.021470599 0.04136239 -0.004559961 -0.0019605712 0.0012954137 -0.05628156
-0.051823072 -0.032482523 -0.024480252 -0.00879069 0.026793176 -0.014054594 -0.040331583 -0.0003521666
0.043678407 -0.011714466 0.01656721 0.0050158896 -0.03426613 -0.0059912265 -0.043165483 0.023123074
-0.01949357 0.032227084 0.025095949 -0.011382683 0.004725881 -0.046882246 -0.016840365 -0.040012814
00000000: d96d f7bc c8a9 803d 99fe 53bd 695e c33c
00000010: d267 b53c 20e8 1a3c c163 b83c 82da 5fbd
00000020: d316 74bd 2c28 2bbc 4323 81bc 6011 813c
00000030: 6a1a 3f3d 0a27 7c3c 3682 4a3b a385 f1bc
00000040: ecd7 63bd a88b 6cbd b8be 823b 7cee b9bb
00000050: 73dd 62bd bf7f 30bd 044e 30bd 6853 0bbc
00000060: 3ba7 44bd ff6a ecbc 706e 8ebb 2e98 7fbc
00000070: 0fac 8cbc 1f93 283d e3f0 713b 9a7f 2e3b
00000080: 80fc 51bb 2f3e eb3b 04a1 4abd c42f 1d3d
00000090: e611 423d 46ba 1cbd 6665 18bd 5d33 50bd
000000a0: 79d8 8dbc 1900 1b3d 9346 d8bc d162 c33c
000000b0: b4b9 b1bc 3f3c babc 5873 20bd 880f ef3c
000000c0: e0e9 a33b e2ec 0bbd c709 803c 0d0e 833d
000000d0: 2a4c d5bc 7aef 573b dca0 213d 27d5 ddbc
000000e0: 7678 69bd 8c37 23bd e208 e23c e922 3cbd
000000f0: 797e 20bc d480 fcbc 5d94 a9bc a485 2bba
00000100: 8d33 32bc 5064 243d 5599 823b 949e c03c
00000110: 61e1 60bd b083 263c c082 a6b9 966d 66bd
00000120: 2c29 23bd a12c 033d 84cf 1bbd becb 06bc
00000130: 60c1 1bbd 1b3a 2ab9 3a2d 473d cac7 d0ba
00000140: 8c36 58bd 3f43 733d 2fff 1fbc e04e 3fbc
00000150: 2b1b 96bc dc97 d83c 9c53 3bbd f22b b0ba
00000160: dc02 05bd 701a c6bc da0d e43c f8cd 89bc
00000170: 0c7e b83c 773f d23c c7c9 7e3c 9155 7b3d
00000180: 7d98 1b3d 4e71 703d 8e52 843c c269 863c
00000190: 45c7 60bd b088 66bd 0a78 19bc e934 babc
000001a0: 20a4 31bb c4ba acbb a76e 2e3d 9ef6 69bd
000001b0: 867f 193c ffc6 ab3c 3b87 26bd a631 273d
000001c0: 1e77 0bbb 8721 923c b42c b4bb 6f8b 56bd
000001d0: afea cd3c 5e14 c2bb 1410 a0bc e4e4 953c
000001e0: d9a2 8f3c cc7c d73c 56c9 403d 4729 0b3d
000001f0: d949 173d e692 c2bc 118b f13c 64dd e9bc
00000200: 31ca f83c b67a 54bd 4670 2e3d 5f42 9fbb
00000210: f954 59bd 2f8f cfbc 31e2 a63c b4b4 8b3c
00000220: e154 13bb c842 29bd 90be 13bd cb2a f93b
00000230: 00a4 e939 6a5c 21bd 9457 c03c 4b98 4a3d
00000240: 0866 883c c0d4 d03c a8f7 943d 6fc7 083d
00000250: 69f4 1f3d 4483 e33c 7f8c c3bc ae5d 4cbd
00000260: 9b3a 3a3d 718b 203d 5ee9 a5bc cd18 3ebd
00000270: 1456 d23c 33ce 4d3d 7753 44bd d085 3b3c
00000280: 213c 14bd 2629 6cbd db7d 8ebb 6ec4 5a3d
00000290: 5974 deba 45cc 11bd 2058 37bd 8e54 09bd
000002a0: f03a 7a3d c038 063d 0156 493c 2a61 0abd
000002b0: f28a 3fbc 7982 6d3c fc28 8d3c 33d5 33bd
000002c0: 66a9 953b 5e3d 43bd d714 813c d6e7 083d
000002d0: 9466 7e3c 32f3 d9bc 48d6 043c 6bc0 86bc
000002e0: c278 e3b9 4667 303d daae 4e3d 8037 8437
000002f0: 25cf 0d3d 04a5 82bc 180e 52bd dbe1 56bd
00000300: 0d3d 44bc 20f5 3dbc 6b3d 19bd feea 2cbc
00000310: 11bd 28bd 98d6 f13c 88c0 26bd 81a1 8b3d
00000320: be4d bbbc f6a7 763d 5d29 d33c bf9e a6bc
00000330: 262d 083d 9952 5a3d 2403 35bd 75de 8a3d
00000340: 2b36 e7bc cf82 123d 2dc2 4a3c 40f5 ebba
00000350: bef0 f0b9 f1ce c2bc cd50 33bd db5c 04bd
00000360: 725a a43c f8d5 863c 9972 ed3b 7288 07bd
00000370: d0e1 23bc 8d47 c43b aa78 ab3c 4d87 433b
00000380: de04 143d 3585 dd3c 1ce3 af3c 9c6b 293d
00000390: ba6b 95bb ed7c 00bb dfca a93a 7e87 66bd
000003a0: 6e44 54bd 650c 05bd cf8a c8bc d406 10bc
000003b0: 5d7d db3c 3d45 66bc bb32 25bd 00a3 b8b9
000003c0: 21e8 323d 08ee 3fbc f5b7 873c 555c a43b
000003d0: a45a 0cbd 0d52 c4bb 4ace 30bd 9a6c bd3c
000003e0: fbb0 9fbc 8c00 043d 0596 cd3c 6f7e 3abc
000003f0: 90db 9a3b 9907 40bd cef4 89bc 7ae4 23bd

linear2.bias f4 [3]
-0.055292897 -0.014489447 0.031909544
00000000: ce7a 62bd 2565 6dbc 95b3 023d
