model/model.pth (torch, 17216 bytes, 4 tensors)

linear1.weight f4 [256, 11]
000000 f7 09 b1 bc e1 a0 3d 3e ab ea 6e be 5e f1 74 bd
       -0.021611197 0.18518402 -0.23331706 -0.0598005
000010 e4 5f 8e 3d bf 66 90 3d 8a bf 71 be a4 b2 86 3e
       0.069518834 0.07050847 -0.23608223 0.26308167
000020 54 be 3e be 63 7d 72 3e bd 2e 27 bd 75 e3 2e 3e
       -0.18627292 0.23680644 -0.040816057 0.17078955
000030 d3 a3 4c 3e 89 93 0a 3e 8b b4 1c be d5 ed 66 bd
       0.19984369 0.13532843 -0.15303247 -0.056379158
000040 8a 95 33 3e 77 3e f0 3c ef 16 5f 3d 95 c9 8f 3e
       0.17537513 0.02932666 0.05446523 0.28083482
000050 42 d8 4f be d7 4b 3a bd e9 20 49 3e fa ba 3f be
       -0.2029734 -0.045482483 0.1964146 -0.1872367
000060 3d 16 e8 3d 6f e6 07 be ac dd e7 bd 2d 47 03 3e
       0.113323666 -0.13271497 -0.113215774 0.1282012
000070 cc bd 88 3e 22 92 64 be 8f 17 15 be 1a 6d 23 3c
       0.26707304 -0.2232137 -0.14559768 0.009974742
000080 e8 2e ad 3d d2 2d 17 3e 0c d1 62 3e 3c 28 7e be
       0.08456212 0.14763573 0.22150058 -0.24820036
000090 55 43 89 3e 02 92 56 3e da f8 83 be c1 53 7b be
       0.26809183 0.20954135 -0.25775796 -0.24543668
0000a0 f4 ff c1 bc 8a fd 9d be 50 89 03 3e 5e 03 32 be
       -0.023681618 -0.30857497 0.1284535 -0.17384097
0000b0 dc 32 fa 3d df 09 55 be 87 63 14 be e8 af 8a bd
       0.12216732 -0.20804547 -0.14491092 -0.06771833
0000c0 f4 69 96 bc ab 9f 38 3e 9e c9 f7 3d d7 a9 24 3e
       -0.01836107 0.18029658 0.12099002 0.16080414
0000d0 ad 95 02 3e 61 09 78 be 5d dc 39 bd b8 e0 5f be
       0.1275241 -0.24222328 -0.04537617 -0.21863067
0000e0 f8 93 41 bc 4d e5 d2 bc 60 b8 88 be c1 89 4e be
       -0.011815064 -0.025744105 -0.26703167 -0.20169736
0000f0 a8 f0 27 3e 15 e5 89 3d a6 0f ec bd 57 6f 64 3b
       0.16400397 0.06733147 -0.11526422 0.0034856403
000100 51 ab 94 be af a0 4e 3e a5 a8 03 3d aa bd 7e 3d
       -0.29036954 0.20178483 0.032143254 0.062192596
000110 e3 34 2c 3e 94 51 5a be ec 5c 2a 3e 2a 75 1b bd
       0.1681705 -0.21320182 0.1663701 -0.037953533
000120 ec 2d 76 3e 0b 74 4d bd 1b 11 9f be 81 f5 2f be
       0.24040955 -0.050159495 -0.31067738 -0.17183496
000130 b6 7e a5 3d c8 e6 61 3e 18 1c 4c 3e 7c d1 92 3e
       0.08080809 0.22060692 0.19932592 0.2867545
000140 81 ab d3 bd f2 43 8c 3d 37 78 05 3e 3c 42 4a be
       -0.10335446 0.06848897 0.1303414 -0.19751829
000150 6e 2a 69 3e 0e 70 eb bd b2 80 f0 bc 62 2f d9 bd
       0.22770092 -0.11495982 -0.029358242 -0.10604741
000160 8e 4d 94 3e bc 1f 92 3e 48 a6 7f be 80 16 f0 bb
       0.2896542 0.28539836 -0.24965775 -0.007326901
000170 28 9e ab 3d 0a ce 57 be 0c 18 0b be 02 05 5e be
       0.08379775 -0.21074691 -0.13583392 -0.21681598
000180 d8 25 33 be 8d 41 84 be 14 13 6c be fb 12 5a 3d
       -0.17494905 -0.2583126 -0.23054153 0.053240757
000190 a0 a4 18 bc 1a 8c 6a be 38 24 3b be 53 78 a5 3d
       -0.009316593 -0.22905007 -0.18275535 0.08079591
0001a0 95 6f 28 be e8 92 d7 bd 2f 7f f3 3d 47 0f b6 3c
       -0.16448815 -0.10526067 0.11889493 0.022224082
0001b0 9d f9 3e be 26 51 55 3e d0 b1 7d be 46 50 db ba
       -0.18649907 0.20831737 -0.24774861 -0.0016732297
0001c0 02 02 58 3d 42 7a 84 3d af e2 85 bd 27 ce 73 be
       0.05273629 0.06468631 -0.06537377 -0.2380911
0001d0 fb ca 6c bd 4f 69 4a 3e 26 21 5f 3d 14 4c c2 3d
       -0.057810765 0.19766735 0.054474972 0.09487167
0001e0 1f 48 a9 3d 16 f6 0f bd c5 b2 1e 3e 96 1a ba 3d
       0.08265709 -0.035146795 0.15497883 0.09087102
0001f0 ef c9 ab 3d b7 e0 62 3e 55 ae 1e 3d 60 db 31 be
       0.08388125 0.22156034 0.038740475 -0.17368841
000200 18 fa 9a 3e 3e 00 bc bd 4c 6a 78 be 58 29 96 3e
       0.3026893 -0.09179734 -0.24259299 0.29328418
000210 d8 77 48 be 88 93 49 3e bf 96 7a 3e b4 19 36 be
       -0.19576967 0.19685185 0.24471568 -0.17783242
000220 dc 0b c2 bd 6f 59 56 3e 81 4d ca bd 8a 75 8d be
       -0.09474918 0.20932554 -0.09878064 -0.27628738
000230 11 b4 45 be c6 db eb 3c b0 0e 1e 3e 7c 61 63 be
       -0.19306971 0.02879132 0.1543529 -0.22205156
000240 25 93 03 3e 49 35 83 be cf 71 95 3e aa 44 24 be
       0.128491 -0.2562659 0.29188392 -0.16041818
000250 11 49 24 bd b9 c4 7c 3e 08 9a 8f bd dd 21 12 be
       -0.040108744 0.24684419 -0.07011801 -0.1427073
000260 99 1c 12 bd d3 3b 87 3e f0 90 3b 3e e9 9d 0f 3e
       -0.035671804 0.2641283 0.18317008 0.14025082
000270 b8 85 8e be e0 0a 55 3e d8 42 de 3d d9 54 ef bc
       -0.27836394 0.2080493 0.10852593 -0.029215263
000280 b9 e0 47 3e 35 81 4f 3e e6 9e 35 bd c0 e1 9c be
       0.19519319 0.20264132 -0.04434099 -0.30640984
000290 c2 4c 79 be 1a bb 7f be 85 3e 83 3e 13 be 94 3e
       -0.24345687 -0.24973717 0.25633636 0.29051265
0002a0 28 26 88 3e da 6b 22 bd 9f 5e 1b 3d 76 8a 04 be
       0.2659161 -0.039653637 0.037932035 -0.12943444
0002b0 0f 2e 88 3e ef e5 84 bd a6 de 83 3e 9a 40 c5 bd
       0.2659764 -0.06489169 0.25755805 -0.096314624
0002c0 3c c9 e4 bd e3 4b 86 3e 2e 0e 86 be fd 1b 38 3e
       -0.11171195 0.26229772 -0.26182693 0.17979427
0002d0 ff b6 e7 bd 30 a0 54 3e e5 1c 94 3e 9b 31 87 3e
       -0.113142006 0.20764232 0.28928295 0.26405033
0002e0 53 0f 36 be 3d f1 83 3d 05 27 53 be e4 bf 8d 3e
       -0.17779283 0.06442497 -0.20620354 0.27685463
0002f0 18 04 d6 3d 1c d3 31 3e d9 d6 28 3e 97 ba f4 bd
       0.104499996 0.17365688 0.16488208 -0.11949652
000300 2d ce 28 be 17 af 6e 3d e5 6a 51 3e d4 95 7d 3c
       -0.164849 0.058272447 0.20450933 0.015477616
000310 07 cc e6 3d 03 f2 73 3e 04 c1 f0 3c d1 11 70 3e
       0.11269384 0.23822789 0.029388912 0.23444296
000320 dd fe e5 3d 6d 69 11 3e d6 f7 bd 3d 49 c1 19 be
       0.11230252 0.14200373 0.092757866 -0.15015139
000330 41 bc 62 bd ed 26 3b 3e 17 44 68 3e e7 21 4e bd
       -0.055355314 0.18276568 0.22682224 -0.0503253
000340 59 ca 3a be 33 14 18 be 1c b7 78 3d 4d 48 0e be
       -0.18241252 -0.14851455 0.0607215 -0.13894768
000350 b8 46 a7 bd 4c 04 03 bd 3a e8 f1 bd 3a 42 f7 3c
       -0.081677854 -0.03198652 -0.11811872 0.030182946
000360 5e 74 cb 3d 0f 61 1e bd cd 9c 9e bd ad cc 6d 3e
       0.09934305 -0.03866678 -0.07744751 0.23222609
000370 5f ab 26 be 12 f0 b7 3d 68 57 c4 bd 61 f5 1d be
       -0.1627631 0.08981337 -0.09586984 -0.15425636
000380 d2 a0 b9 3d 16 57 0b 3e 42 76 2b 3d aa e0 c6 3d
       0.09063877 0.1360744 0.041860826 0.0971082
000390 e8 0c c0 3d e6 98 49 3e cd cf 77 be 70 35 15 3e
       0.09377462 0.19687232 -0.24200363 0.14571166
0003a0 4f d5 20 be 73 bc 14 3e 42 3f 55 3d d3 61 e4 bd
       -0.15706371 0.14525013 0.05206228 -0.11151471
0003b0 5a 9c e0 3b 6f 6a 7b be 73 23 69 be 8b 64 9b bd
       0.006854576 -0.2455232 -0.22767429 -0.075875364
0003c0 54 66 4f be 97 69 74 3e 76 da 78 3d ec ff 3f bd
       -0.20253879 0.23868404 0.060755216 -0.046874925
0003d0 b0 28 64 3d 7f 71 83 3e f1 ca 62 3d c7 46 94 3e
       0.055702865 0.25672528 0.05536932 0.2896025
0003e0 e0 4d 41 be 21 b4 16 3e c1 86 71 3e aa a3 0d 3e
       -0.18877363 0.14717151 0.23586561 0.13831964
0003f0 86 27 8f bb c8 1e 87 be 3e 11 03 3e 44 8e 37 3e
       -0.004368725 -0.26390672 0.12799546 0.17925364

linear1.bias f4 [256]
000000 02 87 6f 3d 51 a3 3f be 3f 69 91 be 32 26 0b 3e
       0.058478363 -0.18714644 -0.2840061 0.13588789
000010 d5 51 15 be 37 5b a6 bd 02 87 bc bd 7b 1b 6d 3d
       -0.14581998 -0.081228666 -0.09205438 0.057887536
000020 40 3c 72 bc f8 e5 9c be 1e 63 85 3e a6 17 46 be
       -0.0147848725 -0.30644202 0.26052183 -0.19344959
000030 1c b2 13 be 42 f7 19 be d1 5b 9a 3d 65 31 83 bd
       -0.14423412 -0.15035728 0.07537044 -0.06405906
000040 b3 07 23 3e 61 6b b0 3e dd 4a 68 bc fe d4 87 3e
       0.15920906 0.34456924 -0.014178005 0.26529688
000050 cb 2f 0e bd 7f ea 09 3d 59 f7 25 3b 65 d2 5a be
       -0.034713548 0.0336709 0.0025324433 -0.21369322
000060 1e 78 88 be 2a 37 34 3e f6 90 f5 38 a3 d9 0a 3d
       -0.26654142 0.17599168 0.000117095115 0.03389896
000070 ab ff 3c 3e 10 f5 2d bd 44 87 fb bd c1 90 ea bd
       0.18456905 -0.042470038 -0.12281659 -0.11453391
000080 c0 62 c8 bc 58 a9 8e be bb 2f d0 bd bf dd 2e be
       -0.02446115 -0.27863574 -0.10165354 -0.17076777
000090 53 5d 79 3e 3e 5d 9e bd 29 f9 7d be d3 59 c6 3d
       0.24352007 -0.07732628 -0.24802078 0.09685101
0000a0 07 65 be 3d 59 01 4c 3e 01 51 9c 3d 05 1d 6d 3e
       0.09296613 0.19922389 0.07632638 0.23155601
0000b0 ba 89 54 3e b7 9d 22 be 1c 7e 2c be de c6 96 be
       0.20755664 -0.15880476 -0.16844982 -0.294486
0000c0 53 16 1c 3e 80 32 cc 3c 58 79 7e 3e 36 d6 4c be
       0.15242891 0.024926424 0.24850976 -0.2000359
0000d0 77 c2 fd 3d 7e c3 6a bc af 08 9b 3e ef 83 5b 3b
       0.12390607 -0.0143288355 0.30280063 0.0033495387
0000e0 4f 6d 93 bd 02 ec 20 3e 9f d4 3a 3e 98 a4 90 bb
       -0.07198583 0.1571503 0.18245171 -0.0044141524
0000f0 6e c8 64 3c 08 69 1b 3e 63 4a 4c be ce 51 e7 bd
       0.013963802 0.15176785 -0.19950251 -0.112949
000100 66 69 a7 3e 7e 16 e0 bd d2 42 9b 3b de 0c 96 be
       0.326976 -0.1094179 0.00473819 -0.29306692
000110 50 23 00 3e 8e 94 83 3e 35 cc 6c 3d 1e 54 83 3d
       0.1251347 0.25699276 0.057811935 0.064125285
000120 98 e1 0a be 05 24 8d 3e 3c cd 82 3e ee 2e 40 3e
       -0.1356262 0.27566543 0.25547206 0.18767902
000130 9f f5 21 3e c2 89 3c 3e bd 28 5a bd cd 5e 49 3c
       0.15816353 0.18411925 -0.053261507 0.012290669
000140 21 4b 81 be 67 10 9f 3e 32 d1 63 3d cb 60 09 3d
       -0.2525263 0.31067201 0.055619426 0.033539575
000150 d4 27 98 be d7 79 97 be ac a7 cb bb f8 d0 8d 3e
       -0.29717886 -0.29585144 -0.0062150564 0.27698493
000160 8e cd c7 bd a4 ee 7e be c6 98 8d be bb 69 81 be
       -0.09756003 -0.24895722 -0.2765562 -0.25275978
000170 dd 9f 8b bd 5e c7 4a be 62 3a 3c 3e 99 0f 35 be
       -0.06817601 -0.19802615 0.18381646 -0.17681731
000180 f9 54 28 bd 9a 99 9f 3d d3 ba 7d 3e 15 0a 69 bc
       -0.04109666 0.07792969 0.24778299 -0.014223595
000190 ba e8 d9 bc 39 c4 16 be eb 11 70 3e 89 81 46 3e
       -0.02660023 -0.1472329 0.23444335 0.19385351
0001a0 7d 21 9a 3e ef ca 11 be a1 0c 20 3e 07 90 12 3e
       0.30103675 -0.1423757 0.15629818 0.14312755
0001b0 22 d5 8c 3e f9 09 61 bd 5b bf 9d 3d e4 de 18 be
       0.27506357 -0.05494115 0.07702514 -0.14928776
0001c0 35 aa 4f 3e 4e b2 84 be 9d e5 78 3e 82 b3 55 3e
       0.20279773 -0.25917286 0.2430634 0.20869258
0001d0 bb 28 4c 3e ef 1f 97 be b7 ca 13 3e 98 fd 3a 3e
       0.19937412 -0.2951655 0.14432798 0.18260801
0001e0 c0 a9 23 be 65 c4 88 be 70 f3 93 be 66 4d 4c bd
       -0.15982723 -0.26712337 -0.28896666 -0.0498785
0001f0 35 c3 90 3e 74 36 0f 3c 36 77 9a be c0 a2 95 be
       0.2827393 0.00874101 -0.30169076 -0.2922573
000200 34 09 c4 bd 37 b3 7c bd fe 00 2a be 56 dd 89 be
       -0.09572068 -0.06169435 -0.16601941 -0.26926678
000210 ef c4 9d bd 35 21 6a be 08 15 01 be 76 c9 cf bd
       -0.07703578 -0.2286423 -0.12605679 -0.101458475
000220 ec 2e b0 3a ad 46 9e 3d 02 6a a4 3d d2 fa c6 3d
       0.0013441718 0.07728324 0.08028032 0.09715809
000230 df 23 0a 3e 43 7b f2 bd a5 aa 89 3e 93 f4 c8 3c
       0.13490246 -0.118399166 0.26888004 0.024530685
000240 d8 bf 47 be e8 f2 e4 bc 21 00 0c bd 02 fd 0c 3e
       -0.19506776 -0.027947858 -0.03417981 0.1376839
000250 b4 36 07 be c7 f2 9d 3d bc 65 68 be c7 19 5b be
       -0.13204461 0.07712322 -0.22695059 -0.21396552
000260 35 7a 00 be cd e6 24 3e 8f ca 47 3e bf da e3 3d
       -0.12546618 0.16103669 0.19510864 0.11125707
000270 ed 1f af 3e 5d e1 b3 bc 99 9d 0b be 7e 0e 0e 3e
       0.34204045 -0.021958048 -0.13634337 0.13872716
000280 9b be ef bd 88 51 58 3e 57 8b dc 3d a2 20 af bc
       -0.11706277 0.21124852 0.107687645 -0.021377865
000290 a2 84 52 be 02 18 1d be 8e 50 02 be ec 64 cd bb
       -0.20558408 -0.1534119 -0.12726042 -0.0062681343
0002a0 a4 4a 4f 3d 3a ed 2c be ce f8 27 3d 37 aa 5c be
       0.050608292 -0.1688737 0.041008763 -0.21549307
0002b0 c4 01 f5 bd 01 5c d9 bd 56 f5 46 be 16 a6 bb 3c
       -0.119632274 -0.106132515 -0.19429526 0.022906344
0002c0 d7 61 62 be 6d 19 9b 3d fa d3 5c 3e 46 7c 8c 3e
       -0.22107635 0.07573209 0.21565238 0.27438563
0002d0 5c 3d 51 be 4c 03 a7 3d 81 43 ab 3d 3c eb e7 bd
       -0.20433563 0.08154926 0.08362485 -0.11324164
0002e0 1a b2 6e 3e 74 56 90 be 18 bf ee 3c f3 84 8b bd
       0.23310128 -0.28190958 0.029143855 -0.068124674
0002f0 09 3c aa 3e d5 9b 33 3d b4 89 71 bd d4 1d 1c 3e
       0.33248928 0.043849785 -0.058969215 0.15245754
000300 10 43 32 3e 47 3e 92 be 84 aa ec bd 91 de 3a bd
       0.17408395 -0.2856314 -0.11555961 -0.045622412
000310 a4 82 73 3e 46 ca 6b be bd 96 04 3e 99 75 9e bd
       0.23780304 -0.2302638 0.12948127 -0.07737274
000320 e6 34 cf 3d bd d2 c6 bd a0 ec fa bd 68 eb b7 3d
       0.101175115 -0.09708164 -0.12252164 0.08980447
000330 db 9f 4e 3e bc 80 37 3e f1 15 20 be 52 22 48 3e
       0.20178168 0.17920202 -0.1563337 0.19544342
000340 ba 2d 6f be 9d c6 68 be 8a fe f1 3d 32 6f 4f be
       -0.23357287 -0.22732015 0.118161276 -0.20257261
000350 c7 98 3a be 04 9c 26 3e 30 7a 59 be 71 bf 09 3e
       -0.18222342 0.16270453 -0.21238017 0.13451935
000360 1a d5 63 bd c3 d0 2c be a8 45 84 3e 54 1d 18 be
       -0.05562315 -0.16876511 0.25834394 -0.14854938
000370 dd 3e 2d bc 3f b4 8f be e4 48 83 bc b7 d5 87 3d
       -0.01057407 -0.28067204 -0.016025968 0.0663256
000380 aa fb 8f be a5 86 35 be 11 ff 06 be a1 fe 3e be
       -0.28121692 -0.17727144 -0.13183238 -0.1865182
000390 7d de 30 3e 98 aa 2f be aa 89 b0 bd 2b 36 83 be
       0.17272373 -0.1715492 -0.08620007 -0.25627264
0003a0 2a 9b 53 3e 77 f7 d7 bd 04 34 42 be 25 22 4e bd
       0.20664659 -0.10545247 -0.18965155 -0.05032553
0003b0 e7 cb 51 3e 3a 0d 60 3e 74 cb 09 be ba a1 01 be
       0.20487939 0.21880046 -0.13456517 -0.1265935
0003c0 08 aa 30 3e d3 0f 99 be 49 45 4c bd 8d b3 af bd
       0.17252362 -0.29894885 -0.049870763 -0.085791685
0003d0 35 4f 61 be a1 95 9b 3e 96 e8 6b bc ef 49 28 3d
       -0.22002871 0.30387595 -0.0143987145 0.041086134
0003e0 8a db 95 3e 24 0a 62 bd 23 de 76 be 41 94 5f be
       0.29269058 -0.055185452 -0.24108176 -0.21833898
0003f0 b0 c4 60 bc ca cc d0 3c b8 f9 9b 3d 07 ce 39 be
       -0.013718769 0.025488276 0.076159894 -0.18145

linear2.weight f4 [3, 256]
000000 2c 49 1a 3d de 63 33 bc 7c 88 bc 3c 93 f4 99 3c
       0.03766744 -0.010949103 0.0230143 0.01879338
000010 f7 ed e0 3c ca cc 2d 3d 7e 27 37 3d de 21 03 bd
       0.02745722 0.04243163 0.044715397 -0.03201472
000020 20 8b f5 bc 38 59 40 3d 40 5e 12 bd 41 e7 0c 3d
       -0.029973567 0.046960086 -0.035734415 0.03440023
000030 9c c0 48 3d c6 01 cb bc ed f8 e8 3b 3c 92 51 3c
       0.04901181 -0.02478112 0.0071097524 0.012791213
000040 ee 0f 8d bd 9a a2 43 bd b4 a2 61 bd 82 fa 66 bc
       -0.06887804 -0.04776249 -0.055086806 -0.014097812
000050 99 1d 6b bd 5a 2e b1 bc aa 68 5d bd 3c 57 34 bd
       -0.057401273 -0.021628547 -0.054054894 -0.044028506
000060 ca ef 06 bd d6 f6 d0 3c 59 d0 18 3d 65 b9 a4 bd
       -0.032943524 0.025508326 0.03730807 -0.08043174
000070 65 ee 1c bd 76 52 48 3d 0c b9 cd bd 85 d6 2c bc
       -0.03831329 0.048906766 -0.100450605 -0.010549192
000080 43 f1 7a bd be e6 ca 3c b3 44 86 3c 11 66 f2 bc
       -0.06126524 0.02476823 0.01639018 -0.029589685
000090 6d 53 8f bc 34 30 2e 3c 60 67 a0 bd cc 7d 4f bd
       -0.017495835 0.01063161 -0.07832217 -0.05065708
0000a0 5c 69 aa 3c 38 ab 8f bd 29 78 02 bd 5c bb de bc
       0.020802192 -0.07015079 -0.031852875 -0.02718895
0000b0 a6 a2 2a 3d 48 97 90 bd 35 b9 1b bd e4 d0 ff bc
       0.04165902 -0.070601046 -0.038018424 -0.031227536
0000c0 9b 1b e6 bc f0 5b b2 bc 61 43 25 3c 34 c9 68 3d
       -0.028089335 -0.021772355 0.010086865 0.056832507
0000d0 aa 4c 6f bd 42 53 3c bd a6 35 af bd 2d 10 4a bc
       -0.058422722 -0.04597784 -0.085551545 -0.012332958
0000e0 f4 04 e2 bc f3 5c 42 bd 5f 6e 66 bd 9c 32 3b bd
       -0.027590252 -0.047451925 -0.0562576 -0.04570256
0000f0 c0 cb cf 3a d5 c6 86 bd 63 ff 8d 3a 6f e3 9f bc
       0.0015853569 -0.06580893 0.0010833557 -0.019517628
000100 09 d4 c5 3b 94 50 0f 3c 7f 4f 14 bd 90 90 af 3c
       0.0060372395 0.008747239 -0.036208626 0.021431237
000110 45 f5 2f bd cc b3 11 bd 8f f3 27 3d e2 8b e1 3c
       -0.042958517 -0.03557186 0.04100376 0.027532522
000120 d2 f8 59 bd c0 2c d6 3c 5d 01 8e bd fc 67 29 bd
       -0.05321581 0.026144385 -0.06933854 -0.041358933
000130 31 e7 81 bc 03 36 54 bd 3f 71 35 bd 5d b3 8d bc
       -0.015857311 -0.051809322 -0.044297453 -0.017297441
000140 4c d9 52 3d 6c 08 50 bd b1 f7 01 bd 2d 4d 33 3b
       0.05147676 -0.05078928 -0.031730358 0.0027359233
000150 69 8a ac 3c f5 00 d8 3c 69 37 c3 3c f4 39 1f bd
       0.021062093 0.026367644 0.023830133 -0.038873628
000160 e0 ec e2 3c 9c ec 41 3d 70 8d cd bc 17 6b 32 bd
       0.027700841 0.04734479 -0.025091857 -0.04355916
000170 54 9d 0a 3d fa 28 8b bc 0c a9 4b bc 07 31 6c bd
       0.033841446 -0.016987313 -0.012430441 -0.057663944
000180 5b 0b fd 3b 9c 4b 61 3d 0b 3d 27 bc ff 8e 7e 3c
       0.007722301 0.055003747 -0.010207425 0.015537023
000190 6c 95 0d 3b 1e 88 23 3a 42 ba b1 3c 5f ea 8b 3c
       0.0021603955 0.00062382396 0.02169526 0.01707953
0001a0 14 fa 4f bd bf cc 0c bc 96 13 e5 bc 48 fd 2a bc
       -0.050775602 -0.008593737 -0.02796344 -0.0104363635
0001b0 99 c8 40 bd 47 16 7b 3d a6 0d 3f bd aa 4d 6d 3d
       -0.047066305 0.061300542 -0.046643876 0.057935394
0001c0 b9 85 4e bd 70 cc 8e bd 5f 3d d4 3c 31 fb 41 ba
       -0.050420497 -0.06972587 0.02590817 -0.0007399796
0001d0 18 9f a5 bd 2a f7 34 bd 44 a8 6f bd b1 18 a0 bc
       -0.08086985 -0.044181027 -0.05851008 -0.019543024
0001e0 97 0b d2 bc 53 3e 42 bd ba b2 5d bc d5 46 a4 bd
       -0.025640292 -0.04742272 -0.013531381 -0.08021323
0001f0 ec 8d 84 bd 40 04 4f 3c b4 3c 21 3d 9c d0 73 3d
       -0.06472382 0.012635291 0.03936453 0.059525117
000200 e4 32 cb 3c c4 07 c9 3c a2 f8 94 bd 90 79 e4 3c
       0.02480454 0.024539836 -0.072739854 0.027889997
000210 f5 38 4d 3d a1 47 92 bb e5 43 59 bc 77 1d 77 3c
       0.050103147 -0.0044641052 -0.013260816 0.015082709
000220 60 3f 67 bd 13 b3 fc 3a 4f 3f 00 3c 16 31 1d 3b
       -0.056456923 0.0019279442 0.007827594 0.0023985556
000230 31 b9 92 3c f1 5d 0b bd ec f4 36 bd a2 f7 31 3d
       0.017910572 -0.034025136 -0.04466717 0.04344905
000240 46 2c df ba 49 06 2e 3d 1d 18 3d bd e8 9d a8 3c
       -0.0017026744 0.042486463 -0.046165574 0.020583108
000250 84 0a 87 bd ab 02 42 bd 20 0d a6 bc 59 41 83 bd
       -0.065938026 -0.047365826 -0.02026993 -0.064089485
000260 1a fb 4f bd ea f6 0d bc 28 07 b0 bd da 9d 80 3c
       -0.05077658 -0.008664826 -0.08595115 0.01570027
000270 1f df c0 bc 96 ba d3 bc b8 c0 85 bc 2d 87 20 bd
       -0.023543892 -0.025845807 -0.016327247 -0.039191414
000280 39 09 18 3a 8f 6b 68 bd 8e 68 da bc ab f5 1d 3c
       0.0005799714 -0.0567432 -0.026661184 0.009641091
000290 17 d8 31 bd 6b c3 6f bc 60 97 08 3d fa a1 5c 3c
       -0.04341897 -0.014633994 0.033347487 0.013466353
0002a0 f6 71 ba bd 7a a9 76 bd e9 fe 99 bc da 07 5b 3c
       -0.091037676 -0.06022022 -0.018798308 0.013368571
0002b0 2d f7 7b bd a7 d3 fe bc 9c 63 99 bc 22 16 a4 bd
       -0.061515022 -0.031106783 -0.018724255 -0.08012034
0002c0 25 b3 5a bd aa 89 d3 bd b0 55 80 bd 45 c6 13 3d
       -0.0533935 -0.10328992 -0.062663436 0.036077756
0002d0 fc ea 2c bd c2 5e c6 bb 79 cd c7 bc 43 06 80 bb
       -0.042216286 -0.0060537765 -0.02438997 -0.0039069965
0002e0 35 e6 c7 bd f9 90 9e bd bc 36 d0 bc e6 78 96 3c
       -0.097607054 -0.07742495 -0.025416724 0.018368196
0002f0 31 02 f5 bc 7f 74 96 3c 59 13 8d 3c 3a 91 2b bc
       -0.029908272 0.018366097 0.01722114 -0.010471636
000300 18 3e 1e bd c8 9e 6c 3c 6b 74 37 bd 69 16 7d bc
       -0.038633436 0.014442153 -0.04478876 -0.0154472375
000310 5a e6 b9 3c 2a 9d aa 3d d0 85 cd bc af 7e 85 3d
       0.022692848 0.08330758 -0.02508822 0.065183036
000320 3e dc 2e 3c 69 0b 0e 3d 7d e5 02 bb a4 57 04 3c
       0.010672627 0.03467885 -0.0019973211 0.008077536
000330 e9 ec cb bb bc 96 82 3b 2f 2f ab 3b 78 d1 e9 3b
       -0.0062233103 0.003985254 0.0052241306 0.0071355663
000340 f6 3a a0 bc 00 51 9e bc b1 d2 05 3d 7d 4e 07 3d
       -0.019559365 -0.019325733 0.032671634 0.033033837
000350 bc e5 10 3d cc ef fa bc 68 98 e9 bc 37 1f 27 3d
       0.03537534 -0.030631922 -0.028515056 0.040801253
000360 9b 9c 88 bb 6a 93 09 bd 2c 9a 96 bd a7 21 44 3c
       -0.0041690595 -0.03358785 -0.07353625 0.011970914
000370 6a 29 fb bc 81 f0 0d 3d 63 15 0e bd 6a c6 38 bd
       -0.030659396 0.03465319 -0.034688365 -0.045111097
000380 f7 74 01 bc e8 4e bc bc 5b 9f 36 3d fd 5e 7b bc
       -0.007901422 -0.022986844 0.044585567 -0.015342471
000390 86 7d fe bc 7b d5 7e 3d 14 19 68 ba 8c a7 fe bc
       -0.031065714 0.06221531 -0.00088538346 -0.031085752
0003a0 3d 69 f0 bc 40 ae 7c bd 0c e9 b0 3b c1 db ad 3b
       -0.029347057 -0.061689615 0.005398875 0.0053057377
0003b0 7d cf 5a bb 50 3d bb bb 34 07 83 bd b9 6d 46 3d
       -0.0033387833 -0.005714096 -0.06397858 0.048444483
0003c0 fc cf 68 bd f8 50 87 bc 71 b6 eb bc 92 f5 45 bb
       -0.056838974 -0.016518101 -0.028773518 -0.0030206186
0003d0 cb 54 fb bc 41 90 92 bd dd cf a2 bd ae a0 07 bc
       -0.03068008 -0.071564205 -0.07949803 -0.008278055
0003e0 a6 dd 44 bb 45 65 fa ba e3 70 70 3c 06 77 5e bd
       -0.003003934 -0.0019103667 0.014675352 -0.05431273
0003f0 d4 32 9f 3b 7b e2 08 bd 8f 81 43 3d 34 09 6b bc
       0.004858354 -0.033419114 0.04773098 -0.014345456

linear2.bias f4 [3]
000000 24 71 6b bd fb 2a fd 3c 17 d1 22 3c
       -0.057480946 0.030904284 0.009937546
